actor_weights.pth (torch, 59026 bytes, 6 tensors)

fc1.weight f4 [200, 4]
000000 21 04 d2 be 09 f2 00 3f a3 d1 15 3f d5 f6 19 3f
       -0.41018775 0.50369316 0.58523005 0.6014226
000010 46 98 74 be 8c c3 be 3e 78 75 17 bf af 19 34 be
       -0.23886213 0.37258565 -0.5916362 -0.17587923
000020 fc 38 7e 3e c5 56 08 be 19 12 ab 3e 4c 37 52 be
       0.24826425 -0.1331435 0.33412245 -0.20528907
000030 97 ca b7 be 5b 86 a0 3e 5a f9 d8 3e c6 35 d0 3d
       -0.3589675 0.31352505 0.4237774 0.101665065
000040 bc 31 96 bc 8a 7e b5 3e 58 56 19 3e 89 57 7e 3d
       -0.018334262 0.35448104 0.14974344 0.0620952
000050 f6 b8 d1 be ca 5b 9b be 27 4d 52 be 0e 11 18 3f
       -0.40961426 -0.30343467 -0.20537244 0.59401023
000060 3e 0a d5 3d 23 bc 6e be d5 7d f4 bd 06 d9 c4 be
       0.10402344 -0.23313956 -0.11938063 -0.38446826
000070 b6 9a 2b 3e 37 7d 07 3e 00 1d 97 be d9 27 10 be
       0.16758236 0.1323136 -0.29514313 -0.140777
000080 18 fc 35 be 67 e4 a7 3e d4 d6 bf be c3 3e 7c 3d
       -0.17771947 0.32791445 -0.37468588 0.06158329
000090 af 50 0a 3f 0c 22 85 3d e1 0b cb be 73 8e cc 3d
       0.54029363 0.065006346 -0.396575 0.099881075
0000a0 e9 04 8c be bb e2 ce 3e cb f3 e4 3e 6e 94 c7 3e
       -0.27347496 0.40407357 0.4471725 0.3898043
0000b0 0a c7 c0 3e 1a 8b 70 bd 0d 18 f4 3e e9 63 87 be
       0.37651855 -0.058726408 0.476746 -0.26443413
0000c0 20 40 06 3f b5 ca ee 3c a4 eb bf 3e b5 f1 04 3f
       0.52441597 0.029149393 0.37484467 0.51931316
0000d0 a9 db e6 be 06 b0 44 3e 99 b8 46 be 62 ca 01 bf
       -0.45089462 0.19207773 -0.19406356 -0.50699437
0000e0 90 3c fc bd 6a f9 c6 bd b8 c0 e0 3e 89 15 10 3f
       -0.12316239 -0.09715541 0.43897033 0.5628286
0000f0 43 fe ad 3e 1f 65 14 3d 9e 85 81 be 8c bb 88 3c
       0.3398305 0.03622925 -0.25297254 0.016690992
000100 b1 57 03 bf 79 02 e2 3d 7e 22 01 3f ad 8d 90 bd
       -0.5130568 0.11035628 0.50443256 -0.070582725
000110 37 4e 9b be 70 97 2c be 04 b3 98 3e 08 74 7a 3e
       -0.3033311 -0.16854644 0.29824078 0.24458325
000120 ca 7a db be 65 ae 45 3e ca 83 93 be d5 f9 a6 be
       -0.42867118 0.19304807 -0.28811485 -0.32612482
000130 1b 88 d4 3e e2 0b 81 3e a3 02 bc 3e 1b 77 60 3e
       0.4151009 0.25204378 0.36720762 0.21920435
000140 84 75 b9 3e 72 e5 fa 3e 3c c7 a6 3e c9 df 04 3f
       0.3622247 0.49003178 0.3257388 0.5190397
000150 82 9f 23 be 66 19 84 bd 9b b2 ae 3e 0f a6 20 be
       -0.15978816 -0.06450157 0.3412064 -0.15688346
000160 fe 5f 07 3f 15 23 8c be 0a 20 a4 3e 1f bc ab 3d
       0.5288085 -0.27370515 0.32055694 0.083854906
000170 70 78 5a 3e bc 97 04 bd aa 82 07 3f 4b 68 73 3e
       0.21335006 -0.032371268 0.5293375 0.23770253
000180 b9 a1 27 be 2d f6 7e 3e b8 fb da bc 22 b2 d5 bd
       -0.16370286 0.24898596 -0.026731357 -0.10434367
000190 ae 7e c7 3d bc 4a d2 be 48 7b 8a 3d ce a4 ab be
       0.09740959 -0.41072643 0.06761795 -0.33524173
0001a0 64 7b b5 be c4 25 c3 3e ab eb b0 3b e5 98 97 3e
       -0.35445702 0.3811475 0.0053991876 0.29608837
0001b0 21 46 81 bc 8d f6 c2 3d 31 5d b1 bc ea 29 9f 3e
       -0.01578051 0.09519682 -0.021650882 0.31086665
0001c0 60 bb 97 3e 59 6c 44 3e 32 e5 48 bd 5d 63 14 3f
       0.29635143 0.19181956 -0.049046703 0.57964116
0001d0 0f c1 d1 3e af 78 a2 3d fd 20 d0 be ad 15 f0 be
       0.40967605 0.07933175 -0.40650168 -0.46891537
0001e0 bd d9 b3 3e fa 97 1d bb 18 f1 43 be ae 5a fa bd
       0.3512706 -0.0024046884 -0.19134939 -0.12224327
0001f0 6e 43 f2 3e 79 d4 43 3d 2f 3a 40 3e 59 18 a7 3e
       0.4731707 0.04781005 0.18772195 0.32635763
000200 e3 3b 06 3f 10 4c 05 3f 15 92 55 3e e4 64 60 3e
       0.5243513 0.5206919 0.20856507 0.21913487
000210 31 0b e0 be db 4e 69 be d8 05 07 3f d8 51 ef 3e
       -0.43758538 -0.22783987 0.5274329 0.4674213
000220 97 90 d1 3e 1d 2f 73 bc e4 46 04 3f 64 32 e4 3e
       0.40930626 -0.014842776 0.5167067 0.44569695
000230 ae da 6f be ff 58 85 be 97 3f 11 bf 56 af c3 be
       -0.23423263 -0.2604446 -0.56737655 -0.38219708
000240 52 ec d6 be 30 34 c9 3d 5d 44 37 3d d3 43 98 bd
       -0.41977173 0.09824407 0.04474293 -0.074348114
000250 10 4d 01 3f a8 ae 7a 3e 4c 88 5b 3e 91 71 0b 3f
       0.50508213 0.24480689 0.21438712 0.54470164
000260 02 1a 29 3e 0c 45 7a bd 45 05 a7 be 69 a9 7c bd
       0.16513827 -0.061101004 -0.32621208 -0.061685
000270 a0 dd 57 be 20 ef 68 be d8 34 66 be c3 e2 16 3d
       -0.21080637 -0.22747469 -0.22481096 0.03683735
000280 51 9e 75 3e 23 d1 c0 3e 94 47 d0 be e6 b4 d8 be
       0.23986174 0.3765956 -0.4067961 -0.42325515
000290 61 4c 95 bc 5a 29 29 3e 8c 16 11 3e 66 98 06 3f
       -0.018224897 0.1651968 0.14168757 0.5257629
0002a0 5b 11 92 be c6 2a 91 bd a7 d1 18 bf ea f1 9d be
       -0.28528866 -0.070882365 -0.59694904 -0.30848628
0002b0 0a a0 b9 be 55 80 dc bc 8d 11 75 be b0 e9 cd be
       -0.36254913 -0.026916662 -0.23932476 -0.40217352
0002c0 65 1a 14 3e d4 9b c3 bd 8c 6d f8 be 9a c4 a5 be
       0.14463194 -0.09551206 -0.48521078 -0.32376558
0002d0 b8 10 cb 3e 8b f1 87 3e 12 a4 3a 3e c1 18 b4 be
       0.39661193 0.2655147 0.1822665 -0.35175136
0002e0 5f fa 30 3c 55 f2 a1 3d 9c f0 25 bd 87 f6 3f be
       0.010801881 0.07907549 -0.040512666 -0.18746386
0002f0 65 cc a7 3e 61 fb cc 3e bc 14 da 3d b0 7d 4b 3e
       0.32773128 0.40035537 0.10648486 0.19872165
000300 5c 0e e9 bd 09 a2 bd be f7 0c 6a 3e 72 e2 0d bf
       -0.11379692 -0.37037686 0.22856508 -0.55423653
000310 fa 03 20 3e 7f d3 c3 be cd 19 10 3f b1 2c be 3e
       0.15626517 -0.38247296 0.5628937 0.37143472
000320 92 23 d1 be 8c 9c d5 3e 10 6a 7b be eb d9 92 be
       -0.4084745 0.41720998 -0.24552178 -0.28681883
000330 db 08 74 3e b6 07 fd 3c 90 d7 c9 3a 13 1c 43 bd
       0.23831503 0.030887466 0.0015399326 -0.047634196
000340 fb 52 55 3e 80 15 75 be 9b 36 99 be e9 79 00 bf
       0.20832436 -0.23933983 -0.29924473 -0.5018602
000350 92 2e 8e be 09 d9 a5 3e c8 bf 67 bd 46 26 42 be
       -0.27769905 0.32392147 -0.05657938 -0.18959913
000360 1b 54 6e 3e 09 45 b1 3e 35 f0 4e bd b6 38 35 3e
       0.23274271 0.34622982 -0.050522048 0.17697415
000370 5a 67 a5 3d a4 f3 6b 3e 8e ea ea be 0f f2 d9 be
       0.08076353 0.2304216 -0.45882076 -0.4256749
000380 c7 f2 a6 3e 40 2a 56 be 15 10 29 3d d5 1f 3b bd
       0.326071 -0.20914555 0.041275103 -0.045684654
000390 8a c5 99 bd a5 8d 4a be c0 f1 9d be 26 b3 9d be
       -0.07508381 -0.19780596 -0.30848503 -0.30800742
0003a0 d1 ef bd bd 93 ee c9 3e d2 ed 1a 3f 52 b8 0e 3e
       -0.09274257 0.3943983 0.60519135 0.139375
0003b0 4d 5c da be c5 1c af 3e 99 d7 2e be a1 35 84 be
       -0.42648545 0.34201637 -0.17074431 -0.25822166
0003c0 5a 72 97 be ee 77 d6 be 37 05 d4 be a0 75 0c bf
       -0.2957943 -0.41888374 -0.4141023 -0.5486698
0003d0 35 5c 9c be f6 c8 ad bc b8 02 de 3e 7a 5d 55 3e
       -0.30539098 -0.02121399 0.4336145 0.2083644
0003e0 52 ad 9e 3e 7e ae 4b 3e 88 5b 9f be f6 46 f3 3e
       0.30991608 0.19890782 -0.3112452 0.47515076
0003f0 8f 1e 15 bd 7a e4 36 bd e5 6c 98 3e 23 29 96 bd
       -0.036406096 -0.044651486 0.2977058 -0.07332065

fc1.bias f4 [200]
000000 08 74 89 3d 83 ef 07 bd 3e 9f 4b be 7f da 4e be
       0.06711584 -0.0331874 -0.19884965 -0.20200537
000010 af 61 ce bd c6 b4 40 3d 83 9b 83 3e 25 d3 be 3e
       -0.100772254 0.0470474 0.25704584 0.37270465
000020 6b c4 81 bd c2 4f b8 bd 61 1f 58 bd 90 32 b2 be
       -0.06336292 -0.089995876 -0.0527643 -0.348042
000030 d3 18 ef 3d 75 39 3b be 63 26 43 3d 36 23 c4 be
       0.11674657 -0.18283637 0.04764403 -0.38308114
000040 32 a3 80 3e c2 58 03 3f 08 98 9a 3e c8 13 20 be
       0.25124508 0.5130731 0.30194116 -0.15632546
000050 bd 41 93 be de 1f ad bd e2 ef f7 3e aa 44 07 3e
       -0.28761092 -0.08453344 0.48425204 0.13209787
000060 95 51 42 bd 4c be ea bd 78 22 66 3e ec 37 b3 3e
       -0.047441084 -0.114620775 0.22474086 0.35003603
000070 69 e5 d7 3d 8c 75 b4 3d 1f 8d e3 be 98 45 55 3c
       0.105418034 0.08811483 -0.44443604 0.013017081
000080 73 e6 dc 3e 4b 96 fd be 23 49 bf 3e 45 0a e5 3e
       0.4314457 -0.49528727 0.37360486 0.44734398
000090 98 8c f4 be cb 9a c3 3e ae 0a 4a be ff 72 86 be
       -0.47763515 0.38204035 -0.19730636 -0.2625961
0000a0 62 43 c6 3e d7 4b 0e 3d cc 33 1f 3e be 7c be 3e
       0.38723284 0.034740295 0.15547103 0.37204546
0000b0 ab ef 96 3e 92 9c 75 3e 84 a6 c1 be cb b7 ca bd
       0.29479727 0.23985508 -0.37822354 -0.09898337
0000c0 81 62 6a 3e fb d5 d3 3e 65 9a ba be 46 0c ba be
       0.22889139 0.41374192 -0.3644592 -0.3633749
0000d0 21 79 15 3e 96 fa a5 bd 1a 79 10 bf e4 b3 78 be
       0.14596988 -0.08104436 -0.56434786 -0.24287373
0000e0 6b e6 87 be 74 79 03 3e 8f 5c d3 3e 88 ce 69 bd
       -0.26542982 0.128393 0.41281554 -0.05708173
0000f0 0a 4c a1 3e 07 91 ad 3e 23 b4 02 3f b9 d9 48 be
       0.31503326 0.3389971 0.51056117 -0.19614305
000100 6f 70 46 3e 82 51 cc be a3 97 f3 3e c0 9a 4b be
       0.19378828 -0.39905936 0.47576627 -0.19883251
000110 05 0c 12 3e 85 f7 ae bd 60 e2 2a be d9 47 0d 3f
       0.14262398 -0.08543304 -0.16687918 0.55187756
000120 68 b6 d1 be cb fb 5e 3e 9c 17 99 3e 7b 76 07 3f
       -0.40959477 0.21775739 0.29900825 0.5291516
000130 92 cc 90 3e 7f 08 01 3f 03 f7 b2 3e 54 1c 8e be
       0.28281075 0.5040359 0.3495408 -0.27755988
000140 10 60 b0 3d 51 b4 8e 3d 45 69 90 3d 04 b3 06 bf
       0.086120725 0.069679864 0.070513286 -0.52616906
000150 b3 05 af be 49 3b 7e 3d e5 75 3e be ce 2c e8 be
       -0.34184036 0.062068257 -0.1859966 -0.45346683
000160 dc 5a a4 bc 0c fa fd bd d6 5b be 3e 03 18 59 bd
       -0.020062856 -0.12401208 0.3717944 -0.053001415
000170 b2 cb 23 3e 56 12 c8 be f8 83 b9 bb 9d c9 dd 3e
       0.15995672 -0.3907649 -0.005661484 0.4331788
000180 ae d4 c1 be 1e 2b 1a 3e 96 6c 15 bf a4 39 e6 be
       -0.37857574 0.1505551 -0.58368814 -0.4496585
000190 c9 bd 16 3e 0c 61 e8 3e f7 c3 25 3e ab 44 d5 be
       0.14720835 0.4538654 0.16188036 -0.41653952
0001a0 6e 79 b6 3d 83 c9 27 be 0e 7b 8d be fd 00 a1 be
       0.089098796 -0.16385464 -0.27632946 -0.31446066
0001b0 21 08 48 3e 0f 4e a8 bd f3 6a 86 3e a7 8e 09 3f
       0.19534351 -0.082180135 0.2625347 0.53733295
0001c0 14 1b 40 3c a8 da b0 3e f5 4d 6c 3e 68 5e d7 be
       0.011725206 0.3454182 0.23076613 -0.42064214
0001d0 e2 28 18 be 80 74 04 3f f8 cf 73 3e f4 ff a9 3e
       -0.14859346 0.51740265 0.23809803 0.3320309
0001e0 91 4f 9f be db dc c2 3e f4 17 fb be 96 b9 05 3f
       -0.31115392 0.38059124 -0.49041712 0.52236307
0001f0 a9 16 b4 3e 47 b8 1a 3e aa 80 e9 be 93 dd 24 3d
       0.35173538 0.15109359 -0.45605975 0.040250372
000200 92 bc a3 3e b5 f7 b4 be f2 cc 1f bc 4d 42 68 be
       0.31979805 -0.35345235 -0.009753453 -0.22681542
000210 cd d7 00 3f 42 97 b8 be 8e 29 f8 be 0b bd 8d be
       0.50329286 -0.360529 -0.48469204 -0.2768329
000220 8c ca 0e 3e 4c 09 9e 3e fe db 0e 3f 60 f4 af 3e
       0.13944453 0.30866468 0.5580443 0.3436613
000230 da 16 bd be 24 4c b4 3e 0b 32 a2 3e ae 48 41 3e
       -0.36931497 0.3521434 0.31678805 0.18875381
000240 e1 37 b9 be ff 5a 52 be 07 16 ba 3e b0 d0 43 3e
       -0.36175445 -0.20542525 0.3634493 0.19122577
000250 a3 13 07 3e c7 0d 31 be 49 d6 f4 be 0a d9 17 3e
       0.13191085 -0.17290412 -0.47819737 0.14828888
000260 2d e5 a0 bd 7f 51 93 3e 24 59 d9 bc 78 53 af 3e
       -0.07856212 0.28773114 -0.026531763 0.3424337
000270 ec b2 11 bf 51 c3 cd 3e a7 9e d7 3e d2 47 0b bf
       -0.5691364 0.40188077 0.4211323 -0.54406464
000280 42 e9 aa 3b 76 cb fc bd d9 a1 58 be a4 6b e7 3e
       0.005215795 -0.123434946 -0.2115549 0.4519931
000290 81 63 69 3e 2b cf bc 3e 5a e8 93 3e ff 6b ef 3e
       0.22791864 0.36876807 0.28888208 0.46762082
0002a0 a5 bc 65 3c cf 52 c1 3e fe 39 e5 3e 31 f0 97 be
       0.014022027 0.3775849 0.44770807 -0.2967544
0002b0 6c ee 59 bd 17 10 fb be 93 3d 06 bf 7a 2a 95 bd
       -0.053205892 -0.49035713 -0.52437705 -0.072834924
0002c0 8d dd 3c be a8 de 7a 3e c9 8d ab be 0c 50 42 3e
       -0.1844389 0.24498999 -0.3350661 0.18975848
0002d0 46 8d 59 3d b6 dc 00 bf 70 7c 83 be 44 e8 e7 be
       0.053113244 -0.5033678 -0.25680876 -0.45294392
0002e0 ba f7 d8 3c 37 5d c2 3e 45 29 fe be 1d 60 ab 3e
       0.026485313 0.37961742 -0.4964086 0.33471766
0002f0 bb 68 92 be 9e 84 7f 3d 8e 75 86 bc 18 19 c2 3d
       -0.28595528 0.062382333 -0.016413476 0.094774425
000300 53 72 b6 3e d0 a0 d5 be e5 51 c4 3d 1d 6c 67 be
       0.35634097 -0.41724253 0.09585933 -0.22599836
000310 e1 f2 a4 3e d2 1f 87 3b 95 a1 a6 3e 62 65 d7 3e
       0.32216552 0.0041236663 0.32545152 0.42069536

fc2.weight f4 [64, 200]
000000 d2 6b 75 bd 60 16 27 bc 2f dc a2 3c 1f 60 3b 3d
       -0.05991728 -0.010198206 0.019880382 0.045745965
000010 d4 99 81 3d c1 41 79 3d ed 29 08 3c af a9 54 3d
       0.063281685 0.060853723 0.008310777 0.051919635
000020 9e 4d 55 3a 65 11 21 bd 5e 2f c5 bb 05 f3 be bc
       0.0008136871 -0.03932323 -0.0060176095 -0.02330924
000030 9b 91 d5 3c 3a 32 90 3b e0 bc 0d bd 0f 50 3e 3d
       0.026070407 0.0044005187 -0.034603953 0.04646307
000040 80 f6 34 bd ca aa bc bc 6d ea 36 bd 22 da fc bc
       -0.044180393 -0.023030657 -0.04465716 -0.030865733
000050 25 94 66 bd e2 30 75 3b f8 fd 3f bc aa 18 92 3c
       -0.056293625 0.003741317 -0.011718266 0.017834026
000060 cc 77 09 3d e8 dd 80 bd f9 ff 41 bd 49 59 8e 3d
       0.033561513 -0.06292325 -0.047363255 0.069506235
000070 8b 48 2c bd cc eb 74 3d b0 15 71 3d 7b df c2 3c
       -0.04206137 0.059795186 0.058858573 0.023788204
000080 1b 45 7e bd 97 bf 05 3d ec c9 70 bd a4 91 20 3d
       -0.062077623 0.032653417 -0.058786318 0.039201394
000090 d7 e6 8e bd 1d c4 5a bd cf 4d 4d 3d 51 50 ce bc
       -0.06977623 -0.053409684 0.050123032 -0.025184782
0000a0 ae c0 54 bd c9 fa 18 bd d2 58 67 bd e7 6b 45 bd
       -0.051941566 -0.037348542 -0.05648119 -0.048198607
0000b0 f0 05 64 bd ec 62 70 bd 2a b7 bc 3c 76 78 1e 3d
       -0.055669725 -0.05868809 0.023036558 0.0386891
0000c0 1d a5 a8 38 77 0b 4d bd db 49 7b 3d 59 86 4f bd
       8.041619e-05 -0.05005976 0.06134973 -0.050665233
0000d0 32 d1 44 bd 7b 84 f3 3c dc 82 4c bd 53 e3 1c bd
       -0.048051067 0.029726258 -0.049929485 -0.03830273
0000e0 71 77 f8 bb 89 63 d7 bc ff 25 51 bd d9 cd 19 bd
       -0.007582598 -0.02629258 -0.051061627 -0.037549827
0000f0 bf da ea bc c9 f2 02 3d 95 54 6b bd a9 72 cb b9
       -0.02866876 0.03196982 -0.05745371 -0.00038804606
000100 ac ba ca bc 52 c3 24 3d dd 7b 54 3d 83 dc 58 bc
       -0.024747215 0.040225334 0.051875938 -0.013236168
000110 3f ae 12 bd 99 57 27 bd 7e 92 e7 3c c8 f8 1e bd
       -0.035810705 -0.040855024 0.028268095 -0.038811475
000120 f6 54 36 3d a7 f7 52 3c c5 35 ff bc 81 fc 48 3d
       0.04451462 0.012876428 -0.031153569 0.04906893
000130 77 52 0f 3c 80 e9 53 bd d9 d3 d8 3c 25 ad 01 bd
       0.0087476885 -0.051736355 0.026468204 -0.031659264
000140 1f 99 68 3d e0 82 71 bb 0d d3 87 bd ec 44 7e bd
       0.056786653 -0.003685169 -0.066320516 -0.062077448
000150 95 83 26 bd 8f 20 1a 3a eb f4 86 bd c0 cc c7 bc
       -0.04065283 0.00058794854 -0.06589683 -0.024389625
000160 bd 06 36 3d a5 f2 98 bc b9 71 8d bd b7 1d 7b bd
       0.04444002 -0.01867039 -0.069064565 -0.061307635
000170 78 dd 2a bd 9d 8c 3e 3b b0 48 30 bc dc 00 63 3d
       -0.041715115 0.0029075511 -0.010759518 0.05542074
000180 3b 0d e6 bc e4 d6 ac 3c 3e b8 67 bd 7a ff cf bb
       -0.02808248 0.021098562 -0.05657219 -0.006347594
000190 16 e2 39 bd 48 1d 99 3c 1f ce 62 bd 09 ff 89 bd
       -0.045381628 0.01869072 -0.055372354 -0.06738097
0001a0 09 8d 8f 3d 09 c8 7e bd 06 71 78 3d e1 da 3d 3c
       0.07009322 -0.062202487 0.060654663 0.011587829
0001b0 56 8d 6b 3d 1e 3c 6a bd 8d 2c df 3c 8c 9b 0a bd
       0.057507835 -0.05718624 0.027242923 -0.033839747
0001c0 cb d3 70 bd 78 10 6a bd 6e 92 12 3d 5e a9 1c 3d
       -0.05879573 -0.057144612 0.035784177 0.03824746
0001d0 95 f6 88 3c 7d 93 90 bd bd db 32 bd 84 2d fd 3c
       0.016719142 -0.07059381 -0.04366659 0.030905493
0001e0 59 3f 44 3d ef 65 8e 3d af 31 b8 bc de 09 00 bc
       0.047911976 0.06953036 -0.022484628 -0.0078148525
0001f0 af 41 90 bd 96 dc 6b 3d 9b 3e 4e 3d 32 8d ea bc
       -0.07043778 0.057583414 0.050352674 -0.02863178
000200 37 64 20 bd 67 3b 86 bd d3 27 8d bd 0a 98 4a bd
       -0.039158072 -0.06554299 -0.068923615 -0.049461402
000210 97 a5 20 3d 10 5f 0c bc d2 3c 0c bd 22 22 12 3d
       0.03922042 -0.008567587 -0.03423769 0.035677083
000220 58 67 16 bd 3b ff 8d bb 1a 8a 0a 3d 56 15 70 3c
       -0.03671965 -0.0043334044 0.03382311 0.014653524
000230 c0 b2 60 bd 64 d4 28 bd da f6 39 bc 2d 9c 61 3d
       -0.05485797 -0.041218176 -0.011350358 0.05508058
000240 7c 64 51 3d cd 16 3c 3d de 25 81 bd 59 4d 3b bd
       0.05112122 0.045920182 -0.06306051 -0.04572806
000250 30 fc bb bc 31 68 30 bc 90 2d e4 bc ed 2d 8d bb
       -0.0229474 -0.010767029 -0.027853757 -0.0043084533
000260 21 5c 79 3d 7e 76 78 3d 03 54 88 bd 6e 1d 80 3d
       0.060878877 0.060659878 -0.06656649 0.06255613
000270 cc 96 19 bd 8c 00 f9 3b 14 9b 8e b8 e9 56 31 3c
       -0.037497327 0.007598942 -6.799973e-05 0.010823944
000280 15 e7 83 bd 44 01 41 bd 61 2b 71 3d 5d 62 c7 bc
       -0.0644056 -0.047120348 0.05887926 -0.024338895
000290 20 44 7d 3d 48 46 ab 3c 81 00 a2 bc 65 25 7c 3d
       0.061832547 0.020907536 -0.01977563 0.0615591
0002a0 d8 15 54 3d 33 06 13 bd ae 3f 05 3b e2 95 2c 3d
       0.051778644 -0.035894584 0.0020332146 0.042135127
0002b0 cb 72 4c bd 9c 6b 33 bd 83 00 70 bb 51 b1 95 3c
       -0.049914163 -0.043803796 -0.0036621399 0.018273028
0002c0 3e 67 54 3d 01 14 35 bd 5a c4 69 bd a7 de 0b 3c
       0.051856272 -0.04420853 -0.05707202 0.008536971
0002d0 9e 66 4f 3d 22 7e 80 3c 90 f3 0e 3d bd 6f 64 bd
       0.050634973 0.015685145 0.034900248 -0.055770624
0002e0 81 2d ea 3b d9 8b 8d 3c 95 73 7e bd 70 cc e0 3c
       0.007146538 0.017278599 -0.062121946 0.027441233
0002f0 51 7c b1 bc a4 d5 db 3c 42 2f 51 bd b7 b2 e0 bc
       -0.021665724 0.02683527 -0.05107046 -0.027428968
000300 39 08 8b 3c 34 b1 9f bc 19 8c 86 bd 0e 2b 57 3a
       0.016971694 -0.019493677 -0.0656969 0.0008208015
000310 7d 5b 39 bd 4e 23 ec bc 73 fe ff bc 19 3f 3c 3c
       -0.045253266 -0.028825428 -0.03124926 0.011489653
000320 5b e2 19 be a9 73 8c bd eb 62 92 bd 87 65 b9 bd
       -0.15027754 -0.06857998 -0.07147773 -0.09052568
000330 a1 50 d0 bd 1c 8c 04 be 5a 6e 4e bd 15 82 23 bd
       -0.10171629 -0.12944072 -0.05039821 -0.039918978
000340 21 9e 13 be d5 bd 95 bd b1 0e 7b bd c0 74 0c be
       -0.1441579 -0.07311598 -0.061293308 -0.13716412
000350 d8 11 1c be 9a f9 9c bd 88 cf e0 bd 41 0c 35 bd
       -0.15241182 -0.07664795 -0.109770834 -0.04420114
000360 b9 9d 16 be 3c 28 ba bd dd b8 0e be 26 db c7 bc
       -0.14708604 -0.09089705 -0.13937707 -0.02439649
000370 c5 f1 c8 bd 9b e8 9d bd 3d 9f 84 bd d4 f5 2a be
       -0.09811739 -0.077103816 -0.06475685 -0.16695338
000380 e7 88 cf bc 5d 99 93 bb 38 36 88 bd 67 7c 83 bd
       -0.025333835 -0.0045043663 -0.066509664 -0.06420212
000390 62 0d 80 bd d4 a9 f4 bb 75 de 88 bd 4f 4c 07 bd
       -0.062525526 -0.007466534 -0.06683055 -0.033031758
0003a0 92 65 1b bd dd f5 4f bd 69 7b aa bd 3a 99 83 bc
       -0.037938662 -0.050771583 -0.0832432 -0.016064275
0003b0 a3 6b 7d 3d a7 17 4d bd 5b e0 a5 bd 84 2c 9a bc
       0.06187023 -0.050071385 -0.08099433 -0.018820055
0003c0 f4 c3 05 be 45 3e 8e bd 7f d2 a4 bc ba a3 4b bd
       -0.13063031 -0.06945471 -0.020119904 -0.04971669
0003d0 df 6a a4 bd ec fd 58 bd d6 d7 ba bc 67 4a 28 bd
       -0.080281965 -0.052976534 -0.022807997 -0.04108658
0003e0 19 d9 1d 3d 69 50 17 be f4 22 6d bd c6 41 1e 3d
       0.03853712 -0.14776768 -0.057894662 0.038636945
0003f0 fe 58 cd 3c 61 23 ee bd 4e c7 67 3d 1e 24 5c bd
       0.025066849 -0.11627842 0.056586556 -0.05374538

fc2.bias f4 [64]
000000 28 2e 78 bd 30 e6 d6 bd dc 4c 7f bc 18 10 03 3e
       -0.060590893 -0.104931235 -0.01558229 0.12799108
000010 5b a6 18 be d1 51 a7 3d 85 5b db bc 49 fe bb 3d
       -0.1490721 0.08169902 -0.026777038 0.091793604
000020 ba 10 e7 3b c5 49 88 3d 29 2f 64 3d 8b 95 00 be
       0.0070515545 0.066546954 0.055709038 -0.12557046
000030 26 78 93 bd f2 ae f7 bd 9b 1d b5 3d fe 71 bf 3d
       -0.07200651 -0.12093915 0.088435374 0.09347914
000040 57 57 69 bd af c1 5d bd fc b2 17 3e 40 d4 d8 3c
       -0.05696806 -0.05413979 0.14814371 0.026468396
000050 8b 81 02 be 26 ca d5 bb a2 7f cc bd ce f3 e2 bd
       -0.12744729 -0.006524342 -0.099852815 -0.11081658
000060 b5 c2 b4 bd 3f bd b3 3c e6 ad bf bc 3e f7 dd 3d
       -0.088262 0.021940826 -0.02339835 0.10838173
000070 10 55 28 bd ad bb 02 be b8 8d f4 bd 69 37 da bd
       -0.041096747 -0.12766905 -0.11941093 -0.106551
000080 7f f1 1a be 37 72 b4 bd a0 a5 65 bd 3c f0 aa 3d
       -0.15131186 -0.08810847 -0.056066155 0.08346602
000090 ec 31 f1 bd 0c 30 df bd d5 da be 3d 13 1d 83 bd
       -0.117771 -0.10897836 0.09319083 -0.0640203
0000a0 a4 49 d2 bd e5 de ca bd 1e 9c ec 3c ef 9a 02 be
       -0.10267952 -0.09905795 0.028883036 -0.12754415
0000b0 fb 59 e1 bd 53 fa 92 bd 65 87 cd bd 76 c4 99 bd
       -0.110034905 -0.07176652 -0.1003559 -0.07508175
0000c0 a4 00 91 3a 54 89 68 bd e5 3b fc bc 53 a7 00 3e
       0.0011062813 -0.05677159 -0.030790279 0.12563829
0000d0 8f 13 74 bd 2b 21 1f 3e 2a d7 18 bb 82 b3 06 3d
       -0.059588965 0.15539996 -0.0023321607 0.032886036
0000e0 8a 85 a0 3c 9d ef 10 be 82 bf 0b 3d 2a 80 84 3d
       0.019594926 -0.14153905 0.034118183 0.06469758
0000f0 5e f7 6c 3d 65 e4 a6 3c 50 b9 fc 3d 45 30 d7 bd
       0.057853095 0.020372579 0.12340033 -0.105072536

out.weight f4 [2, 64]
000000 e4 43 a6 3d 60 21 f2 bc 94 35 46 3d 99 2b 2c be
       0.08118418 -0.02955693 0.04839094 -0.16813506
000010 cb 2b 89 bd 65 80 a8 bd af 75 fd 3c 6d 67 4f be
       -0.06697806 -0.08227614 0.030939905 -0.20254298
000020 be d7 0d be b5 91 2e 3e 0f 08 17 3e 3f 0b 89 bc
       -0.1385183 0.1704777 0.14749168 -0.016728995
000030 83 62 a8 bd ed ab 72 3a 9b 4e 3e be fd 2d 49 be
       -0.082219146 0.00092571863 -0.18584673 -0.1964645
000040 f3 e7 0b 3e 60 c8 2f bc cb ae 39 3e b7 b3 5e be
       0.136627 -0.0107289255 0.18133084 -0.21748243
000050 a2 22 d3 bd 6a 90 8d 3d b5 fa a5 bd 1d bb a6 3d
       -0.1030934 0.069123104 -0.08104459 0.08141158
000060 a4 a1 7b 3d 38 6b 31 be 14 67 17 be 99 d1 37 3e
       0.06143345 -0.17326057 -0.14785415 0.17951049
000070 4b 6f f7 bb 10 af 22 bd a6 7f 8c 3c 72 7d a3 3d
       -0.007551109 -0.039717734 0.017150711 0.07982911
000080 99 39 26 ba ce de 94 bd e7 a0 11 3d 10 7a a7 3d
       -0.000634098 -0.07269059 0.03555384 0.081775784
000090 f9 6e 4b bc aa f5 66 3d e2 28 58 be 91 f6 da bc
       -0.012416595 0.056386627 -0.21109346 -0.0267289
0000a0 3e b2 12 bd 0e d9 34 bd 76 c6 ba bd 87 7f 84 bd
       -0.035814516 -0.044152312 -0.09119885 -0.064696364
0000b0 b4 27 ad 3c 7d c0 2e be ae cc b9 bd 36 ab 8a 3c
       0.021137096 -0.17065616 -0.09072243 0.016927343
0000c0 12 1f 9e bd c9 39 09 bd fd 65 25 bd 1e 77 14 be
       -0.0772077 -0.033502374 -0.040380467 -0.14498565
0000d0 39 dd 8d bc 1f a6 dd 3d 41 dd 12 3d c6 56 f5 bd
       -0.017317401 0.10822701 0.035855535 -0.11979441
0000e0 0e 78 00 be c9 cd 8b 3d cb 96 1e 3d b3 d9 0b 3e
       -0.12545797 0.0682636 0.038718026 0.13657264
0000f0 0e df 13 be b2 a9 3e bd f8 a7 57 3e b8 74 77 bd
       -0.14440557 -0.046548553 0.21060169 -0.060414046
000100 8e 92 9a bd d8 8e 70 bb 1a ae a8 bd 41 3a 15 3e
       -0.07547484 -0.0036706235 -0.08236332 0.14573003
000110 a9 b9 4b bd 50 02 03 3e c3 2e fa 3c ba 5b a2 3c
       -0.049737606 0.12793851 0.030539876 0.01981913
000120 21 2c d4 3d c3 ea d4 bd b0 04 02 be a5 e6 20 bd
       0.103599794 -0.1039634 -0.126971 -0.03928246
000130 3e 63 49 bd db a1 23 3d 81 9d 27 3e cc 08 1f 3e
       -0.04916691 0.03994928 0.16368677 0.155307
000140 fd 09 fb 3c c2 4d 91 3d 35 97 5a be d6 9b 3a 3e
       0.030644411 0.07094909 -0.21346743 0.18223509
000150 d7 e0 cb bc ce 36 3b 3d 1a 00 74 3d 75 bb ec bd
       -0.024887485 0.045706563 0.05957041 -0.11559192
000160 88 ff 4e 3d d6 39 38 3d 5d 3a 86 3d f5 de 2c be
       0.050536662 0.04497703 0.06554101 -0.16881926
000170 33 95 d8 bd 00 3a 9e 3d c9 a2 c5 bd 81 8e a8 bb
       -0.105753325 0.07725906 -0.096501894 -0.005143941
000180 aa e1 8f bd 15 2b 02 bb 0a f6 a0 3d 6f 6b 83 be
       -0.07025464 -0.0019862105 0.07859428 -0.25667903
000190 34 8c 13 be 81 58 3e 3d 27 6b 5a 3e e1 89 9d bc
       -0.14408952 0.046471123 0.21329938 -0.019230785
0001a0 4c 28 82 3b 18 66 18 be ed bc b7 bb df 93 97 bd
       0.003972089 -0.14882696 -0.0056072385 -0.07401251
0001b0 ea bf a5 bd 56 fc 2f bd 10 ba b2 3d 2e df 14 be
       -0.08093245 -0.042965256 0.08726895 -0.14538261
0001c0 6b ce 0b 3e 27 c5 6a 3d be 4f 04 be 78 ed ed 3d
       0.13652961 0.057316925 -0.12921044 0.11617559
0001d0 5b 6a 8f bc 7f 1f 49 be 39 fd eb bd 08 0e a3 3c
       -0.017506769 -0.19640921 -0.11522908 0.019904152
0001e0 4f 74 6d 3d 13 7c 47 ba 2b f8 43 be 13 3d 03 be
       0.05797225 -0.0007609736 -0.19137637 -0.12816267
0001f0 14 c5 cf 3d a5 7c 3d 3e 00 b1 40 be 21 b3 cf 3c
       0.101450115 0.1850458 -0.1881752 0.02535397

out.bias f4 [2]
000000 bd d9 9b 3d 5a e2 6a bd
       0.0760989 -0.057344772
