critic_weights.pth (torch, 87836 bytes, 5 tensors)

fc1.weight f4 [200, 4]
0	0xbecaa3b0	-0.3957801
1	0x3d881634	0.0664486
2	0x3ec4c1f1	0.38429216
3	0x3e596ff3	0.21234111
4	0x3ec8ec62	0.39242846
5	0x3ee352ac	0.4439901
6	0x3ba8d81c	0.0051527154
7	0x3ed03f78	0.40673423
8	0x3e1edcac	0.15513867
9	0x3e488877	0.19583307
10	0x3d3e5e10	0.046476424
11	0x3e3a2f78	0.1818217
12	0xbe9569cb	-0.29182276
13	0xbe3f94a9	-0.18709053
14	0xbd854bec	-0.065086216
15	0x3eac0c0b	0.33602938
16	0x3ed06247	0.4069998
17	0xbd8ec324	-0.06970814
18	0xbd74fdf4	-0.0598125
19	0x3df69b3c	0.12041327
20	0x3ec04634	0.3755356
21	0xbe83413e	-0.25635713
22	0xbeb09cc8	-0.34494615
23	0xbef3f017	-0.47644112
24	0xbed0ef0b	-0.40807375
25	0x3e5eb7e1	0.21749832
26	0x3ee49dd6	0.4465167
27	0x3e313b53	0.17307787
28	0xbe9bfcd9	-0.30466345
29	0x3ec64aa3	0.38728818
30	0x3f06c8e2	0.5265027
31	0x3e967765	0.29387966
32	0xbeb54cf3	-0.3541027
33	0x3dad3d20	0.08458924
34	0x3ebcfd39	0.36911944
35	0x3eb5c2c2	0.3550015
36	0x3ea8d436	0.32974404
37	0xbe931d4e	-0.28733295
38	0x39ef16d4	0.0004560264
39	0x3d52453d	0.051335562
40	0x3cb1a3fd	0.021684641
41	0x3ec863eb	0.3913873
42	0xbe8f5557	-0.27994797
43	0xbe4e2486	-0.2013112
44	0xbe23dc23	-0.16001944
45	0xbe85183e	-0.25995058
46	0x3d5ddcff	0.054165836
47	0xbe6aa217	-0.22913395
48	0xbe4561c1	-0.19275571
49	0xbc8b9b5a	-0.01704185
50	0x3e9a90d5	0.30188623
51	0x3d196fc8	0.03746012
52	0xbd642890	-0.055702746
53	0xbf13a1a9	-0.5766855
54	0xbe21ac5c	-0.15788406
55	0xbe901f29	-0.28148773
56	0x3e18017c	0.14844316
57	0x3e225673	0.1585329
58	0x3eacd693	0.33757457
59	0xbd52ca28	-0.051462322
60	0x3e8d591d	0.2760705
61	0xbd6aebd5	-0.057353813
62	0x3ed290aa	0.41125995
63	0xbda63983	-0.08116438
64	0x3ed59c99	0.41721037
65	0xbe842218	-0.2580726
66	0x3e358144	0.17725092
67	0x3ee504f9	0.44730356
68	0x3e4ee20f	0.20203422
69	0x3e2d47ee	0.1692197
70	0x3eaa7703	0.33293924
71	0x3ebf0152	0.37305695
72	0xbed1d17b	-0.40980133
73	0x3e66e69c	0.22548908
74	0x3e38b008	0.180359
75	0xbeb8631a	-0.36013108
76	0xbe69cd24	-0.22832161
77	0x3eef88c9	0.46784046
78	0xbe01df15	-0.12682755
79	0x3e456cc8	0.19279778
80	0x3ec00e80	0.37511063
81	0xbee8c5af	-0.4546332
82	0xbe1c1176	-0.15241036
83	0xbe75dab9	-0.24009217
84	0xbed6bc56	-0.41940564
85	0x3de89408	0.1135636
86	0xbf11ab68	-0.5690217
87	0xbee64619	-0.44975355
88	0xbf217c3d	-0.630802
89	0x3e992582	0.2991143
90	0xbf0375bc	-0.51351523
91	0x3e959946	0.292185
92	0x3efcdc30	0.4938674
93	0xba0799f8	-0.00051727844
94	0x3ea96706	0.33086413
95	0xbdb60b34	-0.088888556
96	0xbeb360d4	-0.35034811
97	0x3e0122b6	0.12610897
98	0x3d9456ce	0.07243119
99	0x3eebb8f9	0.4603956
100	0x3e1cf6b9	0.15328492
101	0xbe433f45	-0.19067104
102	0x3f1593c6	0.5842861
103	0x3e34c0ce	0.17651674
104	0x3e20772e	0.15670463
105	0x3e26e313	0.1629756
106	0x3e8d7825	0.27630726
107	0xbe5d00ff	-0.21582411
108	0xbee6de94	-0.4509169
109	0x3eb71d65	0.35764614
110	0xbe5f2a6c	-0.21793526
111	0x3e1036d1	0.14083411
112	0x3def2084	0.11676124
113	0x3ddf1e00	0.10894394
114	0xbe7215c7	-0.2364112
115	0xbef414cf	-0.47672126
116	0x3e35f1b1	0.17767979
117	0x3d6f4263	0.05841292
118	0xbea5aff8	-0.32360816
119	0x3ea10338	0.31447768
120	0xbf0309b5	-0.51186687
121	0x3cccf0ec	0.025017224
122	0xbec32589	-0.38114575
123	0xbedb17ea	-0.42791682
124	0x3dffe151	0.124941476
125	0x3ea15b24	0.31514847
126	0x3e8bd9b5	0.27314535
127	0x3df5d5c1	0.12003661
128	0xbebb80d0	-0.36621714
129	0x3e908ef4	0.28234065
130	0x3d99d258	0.07510823
131	0xbeb38869	-0.3506501
132	0xbebf96a1	-0.37419608
133	0xbe1901f7	-0.14942156
134	0xbed71b3e	-0.42012972
135	0xbeccae47	-0.39976713
136	0xbe6a2883	-0.22867016
137	0x3e309d34	0.17247468
138	0x3e693587	0.22774325
139	0xbe9cf782	-0.30657583
140	0x3e840d8f	0.25791594
141	0x3d9052ef	0.07047068
142	0x3e6460cb	0.22302549
143	0x3ee00364	0.43752587
144	0x3eefa699	0.4680679
145	0x3e784c0a	0.24247757
146	0xbeb0c626	-0.34526175
147	0xbe854958	-0.2603252
148	0xbeb67025	-0.35632434
149	0xbc68752a	-0.01418809
150	0xbee64ba0	-0.44979572
151	0xbd973983	-0.07384016
152	0x3df67231	0.12033499
153	0xbe11aaa9	-0.14225258
154	0xbde4c5f9	-0.11170573
155	0x3e5681ee	0.20948002
156	0x3ef6f62d	0.48234692
157	0xbedbdcc5	-0.4294187
158	0x3ec73634	0.3890854
159	0xbe7840bb	-0.24243443
160	0xbeac7358	-0.3368175
161	0xbe4eba21	-0.2018819
162	0xbc9285ce	-0.017886069
163	0x3db64578	0.08899969
164	0x3f15f623	0.585787
165	0xbe525569	-0.20540394
166	0x3d2334f1	0.03984541
167	0xbd733196	-0.05937346
168	0x3edb18a1	0.42792228
169	0x3df8bcf2	0.121454135
170	0xbd5eff98	-0.054442972
171	0x3eab41d2	0.33448654
172	0xbec1c641	-0.37846568
173	0x3ecb7537	0.39737865
174	0xbed39e44	-0.41331685
175	0x3ead0e68	0.33800054
176	0x3e8fc807	0.28082296
177	0xbe48a81a	-0.19595376
178	0xbcf1b9c0	-0.029507518
179	0xbed5a90e	-0.4173054
180	0x3ca83ba4	0.020536251
181	0x3ed86115	0.42261568
182	0x3e8b9841	0.27264598
183	0x3da12d85	0.0787001
184	0xbd836666	-0.06416015
185	0x3eab463f	0.3345203
186	0x3db8132f	0.08988034
187	0xbe9ffd37	-0.31247875
188	0x3e8d8c6a	0.2764619
189	0x3c4d0a3e	0.012514649
190	0xbf0276ae	-0.5096234
191	0xbe304ba5	-0.17216356
192	0x3dd5cf72	0.10439958
193	0xbe377bad	-0.17918272
194	0x3ed9634d	0.42458573
195	0xbeae1084	-0.33996975
196	0xbe7725cb	-0.2413551
197	0xbe9de8dd	-0.30841723
198	0x3ef046cc	0.46929014
199	0x3d05a00f	0.032623347
200	0xbe435bf2	-0.19078043
201	0xbdef96b0	-0.11698663
202	0xbea3c5db	-0.3198689
203	0xbee86f4d	-0.45397416
204	0xbecfeb78	-0.40609336
205	0x3c7af970	0.01531826
206	0xbd6eac1e	-0.058269612
207	0xbdf8fcd5	-0.12157599
208	0xbd9ed2e4	-0.07755068
209	0xbeb15f9d	-0.3464326
210	0x3eaf3812	0.34222466
211	0xbec9bc62	-0.39401537
212	0xbe91746e	-0.2840914
213	0x3e7935d2	0.24336937
214	0x3d453b2f	0.048152145
215	0x3d559d8c	0.0521522
216	0x3f051694	0.51987576
217	0xbe156bd7	-0.14591919
218	0xbf1885c3	-0.59579104
219	0xbed7c1fb	-0.42140183
220	0xbedd85b3	-0.43266067
221	0xbe3fa59c	-0.18715519
222	0xbe9a8e7c	-0.30186832
223	0xbd95334c	-0.07285175
224	0x3e269afd	0.16270061
225	0x3eadaf15	0.3392264
226	0x3e7d7899	0.24753036
227	0x3edd4193	0.43214092
228	0xbf017a76	-0.50577486
229	0x3e82183e	0.2540912
230	0x3ed18fd9	0.4093006
231	0x3f176a7f	0.59146875
232	0x3ea7a5d6	0.3274371
233	0x3f067e4e	0.52536476
234	0x3f02e8cb	0.51136464
235	0x3dc7dd65	0.097590245
236	0xbbae7d1c	-0.005324973
237	0x3e3dec60	0.18547201
238	0x3eb54fdf	0.354125
239	0x3ee0fffc	0.439453
240	0x3e19f402	0.15034488
241	0x3df3ab33	0.11897888
242	0x3e23290f	0.15933631
243	0x3eceec12	0.40414482
244	0x3ee2d441	0.44302562
245	0x3dd236b5	0.10264341
246	0xbea5ace5	-0.3235847
247	0xbe807c6e	-0.25094932
248	0xbe83c0bb	-0.2573298
249	0x3e319f3b	0.17345898
250	0xbf10eaa0	-0.5660801
251	0xbe90d672	-0.2828861
252	0xbedc2455	-0.4299647
253	0x3e9f481c	0.31109703
254	0xbe0b6f25	-0.13616617
255	0xbf0182ea	-0.50590384

fc1.bias f4 [200]
0	0x3c39b26d	0.011334044
1	0x3eb6094b	0.35553965
2	0xbe64005b	-0.2226576
3	0x3e8b16e5	0.27165905
4	0xbe90fa43	-0.28315935
5	0xbdc45059	-0.095856376
6	0x3ea9edb5	0.3318917
7	0x3ea32549	0.31864384
8	0xbd668382	-0.05627776
9	0xbd1d525f	-0.038408633
10	0x3edfd0ee	0.43714088
11	0xbeeae2db	-0.45876202
12	0x3dc8d322	0.098058954
13	0x3e3f1083	0.18658642
14	0xbc12a66b	-0.00895081
15	0x3e732844	0.23745829
16	0xbf0e749e	-0.55646694
17	0x3de2b81c	0.11070272
18	0x3d81d3e4	0.06339243
19	0xbe894aa4	-0.2681476
20	0x3e8b0147	0.27149412
21	0xbeb946fb	-0.36186966
22	0xbdd36aba	-0.10323091
23	0xbdba1c52	-0.09087433
24	0x3e2831b7	0.16425215
25	0xbe4c93f3	-0.19978313
26	0xbe84fa3f	-0.25972173
27	0x3dbdd709	0.0926953
28	0x3eae4587	0.3403742
29	0xbe550b1f	-0.20805024
30	0xbe6ac740	-0.2292757
31	0xbed17bb8	-0.40914702
32	0x3e84fc08	0.25973535
33	0xbed774db	-0.4208134
34	0xbb366959	-0.0027833788
35	0xbeec75af	-0.46183535
36	0xbf071fff	-0.527832
37	0x3e69149d	0.2276177
38	0x3ea14737	0.31499645
39	0x3e34c833	0.17654495
40	0xbdd4cedb	-0.10391017
41	0xbdf27c00	-0.118400574
42	0x3c8cdf96	0.017196458
43	0xbea512c7	-0.32240888
44	0x3e8dabdd	0.27670184
45	0x3e4d7351	0.20063521
46	0x3eb50d26	0.35361594
47	0xbe4ea358	-0.20179498
48	0xbecaa1b0	-0.39576483
49	0xbdf9a362	-0.12189366
50	0xbe9d5319	-0.3072746
51	0xbda6367a	-0.08115859
52	0x3e908853	0.28229007
53	0x3ec61d2d	0.38694134
54	0x3e2d398d	0.16916485
55	0x3e40aa1d	0.18814893
56	0x3d21ea24	0.039529935
57	0xbe09d2f5	-0.1345938
58	0x3ebfbfbb	0.37450966
59	0xbe72e3f3	-0.23719768
60	0x3db7245f	0.08942484
61	0x3eb6224c	0.3557304
62	0xbba05656	-0.0048931045
63	0x3e8735d7	0.26408264
64	0xbe36e376	-0.17860207
65	0xbdffbf2d	-0.12487636
66	0x3e505e2c	0.20348424
67	0xbed27dcd	-0.41111603
68	0xbe8d192b	-0.27558264
69	0xbdeab932	-0.114611045
70	0xbeb35f03	-0.35033426
71	0xbd64f9b2	-0.05590219
72	0x3c6835dc	0.014172997
73	0x3e94cc21	0.29061988
74	0xbed7b8b0	-0.42133093
75	0x3eb30681	0.349659
76	0xbe09d011	-0.13458277
77	0xbe471159	-0.19440211
78	0xbd9da9b9	-0.07698388
79	0x3e9c9bce	0.3058762
80	0xbe79705c	-0.24359268
81	0xbf035a2b	-0.5130946
82	0x3eaeaf5f	0.34118173
83	0x3ce60bfc	0.028081886
84	0x3d86e430	0.06586492
85	0xbf0066e0	-0.50156975
86	0xbefa314f	-0.48865744
87	0x3c858bc7	0.016302003
88	0x3dbe97f7	0.09306329
89	0x3eb3f114	0.35144866
90	0x3eb67562	0.3563643
91	0xbd9e5397	-0.07730787
92	0xbef54078	-0.47900748
93	0x3ed88492	0.42288643
94	0x3e53d719	0.20687522
95	0xbefdadff	-0.4954681
96	0x3dee7b07	0.11644559
97	0xbe100a1a	-0.14066353
98	0x3d694bab	0.05695693
99	0xbe197b1b	-0.14988367
100	0x3e2d34ff	0.16914748
101	0xbda7660a	-0.08173759
102	0xbd90fa85	-0.07079033
103	0x3e2e4410	0.17018151
104	0x3ea027e1	0.31280425
105	0x3e752462	0.2393966
106	0xbebf6f9a	-0.37389833
107	0x3e050a27	0.12992154
108	0x3e6bfc47	0.23045455
109	0x3bbcf239	0.00576618
110	0xbe5cde3c	-0.2156915
111	0x3ebb052c	0.36527383
112	0xbebcd592	-0.3688169
113	0xbe8f59b1	-0.27998117
114	0x3eb938c8	0.36176133
115	0x3ea28b2b	0.31746802
116	0x3dc1de55	0.094662346
117	0x3d1672b1	0.036730472
118	0xbea79b19	-0.32735518
119	0xbec2cc93	-0.38046703
120	0x3dd2fb21	0.10301805
121	0xbeb38f6b	-0.35070357
122	0xbe8869b6	-0.2664315
123	0x3e9dac4a	0.3079551
124	0x3eb38e1f	0.35069367
125	0x3df61389	0.12015445
126	0xbeb2bd15	-0.34909883
127	0xbcef8c5d	-0.029241735
128	0xbe1eaccb	-0.15495603
129	0xbea10ad4	-0.31453574
130	0x3e870bbd	0.26376143
131	0xbdab9d55	-0.08379618
132	0x3e26c889	0.16287436
133	0xbdc55263	-0.09634855
134	0xbed504d4	-0.41605246
135	0x3dcf7639	0.10129971
136	0xbeae26dd	-0.34014025
137	0x3bb5556d	0.005533865
138	0xbe9eb4cf	-0.3099732
139	0xbf0c109e	-0.54712856
140	0xbefaa599	-0.48954466
141	0x3e381f00	0.17980576
142	0xbeb4215d	-0.35181704
143	0xbd6d85a2	-0.05798877
144	0x3e688659	0.227075
145	0x3e8d4d75	0.27598158
146	0x3e267294	0.16254646
147	0x3e04c545	0.12965877
148	0xbd1ae5a0	-0.037816644
149	0xbe49048d	-0.19630642
150	0x3e98e062	0.2985869
151	0xbdc32b40	-0.09529734
152	0xbe026227	-0.12732755
153	0xbd7ec38f	-0.062198218
154	0x3eaa2756	0.33233136
155	0x3d5a7c31	0.053341094
156	0x3e6af9e4	0.22946888
157	0xbe2f322d	-0.17108984
158	0x3e637885	0.22213943
159	0x3dcaa878	0.09895414
160	0x3dae1923	0.08500888
161	0xbe4140ed	-0.18872423
162	0x3eb656a7	0.35612985
163	0x3d362cff	0.044476505
164	0x3e023c29	0.12718262
165	0x3e4865ef	0.19570135
166	0x3cd385d5	0.025820652
167	0xbe14c6aa	-0.1452891
168	0xbe949816	-0.29022282
169	0xbd3a1731	-0.045432273
170	0xbea7e3f5	-0.32791105
171	0xbdff3e13	-0.124630116
172	0x3e103cac	0.14085644
173	0xbe06e3a7	-0.1317278
174	0x3d48507c	0.04890488
175	0xbda06a27	-0.07832747
176	0xbe3a8db2	-0.18218115
177	0xbe658fba	-0.22418109
178	0xbd50deb8	-0.05099365
179	0xbeaf48f8	-0.34235358
180	0xbef59608	-0.47966027
181	0xbdd60acd	-0.10451279
182	0x3c0f35a6	0.008740818
183	0xbe8ab660	-0.27092266
184	0x3b8bf9a4	0.004271703
185	0xbe6ea5a8	-0.2330538
186	0xbdae56f5	-0.085126795
187	0x3dc8ae6f	0.097988956
188	0x3da05ffc	0.078308076
189	0x3e2b4d02	0.16728595
190	0x3de875a2	0.11350562
191	0x3ea3f7ea	0.3202508
192	0x3dba61f5	0.09100715
193	0x3ebec28a	0.37257797
194	0x3ecec731	0.40386346
195	0xbe1ff408	-0.15620434
196	0x3ef75189	0.48304394
197	0x3bd49193	0.0064870804
198	0xbd55dd4a	-0.05221299
199	0x3e825be6	0.25460738

fc2.weight f4 [100, 200]
0	0xbcfb9110	-0.03070882
1	0xbde81202	-0.1133156
2	0xbd511971	-0.051049653
3	0xbcfd9216	-0.030953448
4	0xbdb7be12	-0.089718
5	0x3d376d68	0.044782072
6	0xbd234eb3	-0.039869975
7	0xbd71548c	-0.05891852
8	0xbd826440	-0.063667774
9	0x3d39dfca	0.045379438
10	0xbdd69e14	-0.1047937
11	0x3ce170e4	0.02751965
12	0xbde64c7d	-0.11245058
13	0xbd608db3	-0.054822635
14	0xbd4ef6be	-0.05052828
15	0xbdde29a6	-0.108477876
16	0x3d0f96ba	0.035055853
17	0xbdc6f605	-0.09714893
18	0xbda0e02b	-0.07855257
19	0x3b240da6	0.002503255
20	0x3bf9cde4	0.007623421
21	0xbd3940a5	-0.045227665
22	0xbd180dcb	-0.03712253
23	0xbdf2b465	-0.11850814
24	0x3d6128d6	0.054970585
25	0x3b13c363	0.002254688
26	0xbcc785ee	-0.024355855
27	0xbde2db61	-0.110769995
28	0xbdc071f7	-0.09396737
29	0x3c324e53	0.010882932
30	0xbdc4e1cf	-0.09613382
31	0xbdf352ea	-0.11881049
32	0xbdf9c5e1	-0.121959455
33	0x3bbd9a37	0.005786206
34	0xbd230751	-0.0398019
35	0x3d114deb	0.0354747
36	0xbd64557f	-0.055745598
37	0xbcd2575a	-0.025676418
38	0xbdbb1046	-0.09133963
39	0x3d2192f5	0.03944679
40	0x3cc42524	0.023943491
41	0x3cc522be	0.024064418
42	0xbe0bac80	-0.13640022
43	0xbdfb7705	-0.122785605
44	0xbd9be712	-0.076124325
45	0xbd3dac88	-0.046307117
46	0xbe06f674	-0.13179952
47	0xbde8283d	-0.113358
48	0x3ba2ad8d	0.0049645365
49	0xbc540d8b	-0.012942682
50	0xbdd8cfdc	-0.10586521
51	0xbdf3e798	-0.119094074
52	0xbd8a5bbb	-0.067557774
53	0xbd39514f	-0.045243558
54	0xbd9caa95	-0.076497234
55	0xbd872eee	-0.06600748
56	0xbbf4b704	-0.007468106
57	0x3d46d0ee	0.048539095
58	0xbb8715da	-0.004122478
59	0xbd939674	-0.07206431
60	0xbdd20cf6	-0.10256378
61	0xbd91059b	-0.07081147
62	0xbd99c8cd	-0.07509003
63	0xba48ca04	-0.0007659497
64	0x3cefc522	0.029268805
65	0x3c3e6196	0.011619946
66	0xbcaa7394	-0.020807065
67	0xbd14392c	-0.036187336
68	0x3cf0a84f	0.02937713
69	0xbd2e55d4	-0.04256232
70	0x3d35dddb	0.04440103
71	0xbdae2696	-0.085034534
72	0xbd307e06	-0.043088935
73	0x3a8a88fb	0.0010569388
74	0x3d6ce874	0.057838872
75	0xbda4d54d	-0.080484964
76	0xbd900785	-0.07032684
77	0x3af94426	0.0019017502
78	0xbca29c35	-0.019849876
79	0xbdf37a2b	-0.11888536
80	0xbe0bbafe	-0.1364555
81	0x3d84870e	0.06471072
82	0xbd55f3f1	-0.052234594
83	0xbdd3a7d9	-0.10334749
84	0x3ade5307	0.0016962
85	0xbcac6cea	-0.021048028
86	0x3cf7273a	0.030170072
87	0xbd11ace9	-0.03556529
88	0xbd620f68	-0.055190474
89	0xbe05f6c3	-0.13082413
90	0xbc7cc7a5	-0.015428458
91	0xbd17965b	-0.037008625
92	0x3d35b934	0.044366077
93	0xbdcb30b3	-0.09921398
94	0xbd7e7c35	-0.06213017
95	0x3cecfe94	0.028929986
96	0xbc49adf3	-0.012309539
97	0xbcaed4c0	-0.021341681
98	0xbd8c7466	-0.06858139
99	0x3c5fe301	0.013664962
100	0x3d07a4d7	0.033116188
101	0xbd095a91	-0.033533636
102	0x3d6f2ad5	0.058390457
103	0xbdf935d8	-0.12168473
104	0xbdd50581	-0.104014404
105	0x3cf27705	0.029597769
106	0xbd70e6d1	-0.058813874
107	0xbdc18c05	-0.09450535
108	0xbe0c09ce	-0.13675615
109	0xbde8c2e4	-0.113652974
110	0x3d3d1f8d	0.046172667
111	0xbd37f915	-0.044915278
112	0xbde0bb7c	-0.1097326
113	0x3d379c45	0.044826765
114	0xbdecb50a	-0.11557968
115	0xbe02eca3	-0.12785582
116	0xbd8018a1	-0.062546976
117	0xbdd7cd5c	-0.10537216
118	0x3d358bba	0.044322707
119	0xbd2554e2	-0.040364154
120	0xbd57494f	-0.052560147
121	0x3d754137	0.059876647
122	0xbdc6005c	-0.09668037
123	0xbd4bd5b1	-0.04976434
124	0xbe08a861	-0.13345481
125	0xb90bfad4	-0.00013349514
126	0x3d2cfbeb	0.042232435
127	0xbce595a1	-0.02802545
128	0xbd622632	-0.055212207
129	0xbd46fc6b	-0.04858057
130	0x3b36ab67	0.002787316
131	0x3b262a48	0.0025354791
132	0xbb558a98	-0.003258383
133	0xbcf84886	-0.03030802
134	0xbd26dc1c	-0.040737256
135	0xbbbebb12	-0.0058206404
136	0xbd7e0633	-0.06201763
137	0xbd7cc134	-0.06170769
138	0xbda6e1b9	-0.08148522
139	0x3d79ce7e	0.060987942
140	0x3cfcd874	0.030864932
141	0xbd519b0c	-0.051173255
142	0xbd88e9cf	-0.066852205
143	0x3cb95c2c	0.022626959
144	0x3d4723cd	0.048618127
145	0xbcc5fd8c	-0.024168752
146	0xbdfe2dfa	-0.12411113
147	0xbce68fec	-0.0281448
148	0xbc96cc5a	-0.01840799
149	0xbdd8acef	-0.105798595
150	0xbcc78f8b	-0.024360439
151	0xbd8f77ad	-0.07005248
152	0xbd782dae	-0.06059044
153	0xbdb97408	-0.09055334
154	0xbe00350d	-0.12520237
155	0xbd77a90d	-0.060463954
156	0xbe062f93	-0.13104086
157	0xbd77e7aa	-0.060523666
158	0xbc34ce9c	-0.011035588
159	0xbdfcd0cd	-0.12344513
160	0x3caa30b0	0.02077517
161	0xbd90ca2e	-0.07069813
162	0xbde74913	-0.11293235
163	0xbc4928bc	-0.012277778
164	0x3d3bf7b9	0.045890544
165	0xbdbbf0ca	-0.09176786
166	0x3cf2f4b1	0.029657694
167	0xbdeca3cc	-0.11554679
168	0xbd140909	-0.03614143
169	0xbd70cdca	-0.058790006
170	0xbd867cfb	-0.06566807
171	0x3d6f04f1	0.058354322
172	0xbd079431	-0.03310031
173	0xbcd12677	-0.025531037
174	0xbdd5150f	-0.10404407
175	0xbd20114a	-0.039078988
176	0xbdd6fdc9	-0.104976244
177	0xbd2625d6	-0.040563427
178	0x3d66860c	0.05628018
179	0x3cc2e966	0.023792934
180	0x3c34095d	0.0109885605
181	0xba112e28	-0.0005538189
182	0x3ce836f7	0.028346522
183	0x3c625912	0.013815181
184	0xbd45c615	-0.04828461
185	0x3c8d50c5	0.017250428
186	0xbd47b118	-0.048752874
187	0xbba05e9f	-0.004894092
188	0xbdeacd20	-0.11464906
189	0xbc1642dd	-0.009171215
190	0xbd0ac403	-0.033878338
191	0xbd5a993c	-0.053368792
192	0xbdfb577d	-0.122725464
193	0xbd35a319	-0.044344995
194	0xbdc9c92d	-0.09852824
195	0x3d093576	0.03349825
196	0xbcf08d31	-0.0293642
197	0xbd093a65	-0.033502955
198	0xbddc085a	-0.107437804
199	0xbdc1dea7	-0.09466296
200	0x3dcfbe04	0.101436645
201	0x3dcf7300	0.101293564
202	0x3d8a6c03	0.06758883
203	0xbd1c6e57	-0.038191166
204	0xbd2e4157	-0.04254278
205	0xbe11ca11	-0.14237238
206	0x3d2c979e	0.04213678
207	0x3e33131b	0.17487757
208	0x3dc9ee40	0.09859896
209	0xbddfc4da	-0.10926218
210	0xbd4241bc	-0.04742597
211	0x3d0c1bf8	0.03420636
212	0xba153e04	-0.000569314
213	0xbe354e69	-0.17705692
214	0x3c136804	0.008996967
215	0xbc9187dd	-0.01776498
216	0x3c84f27d	0.016228909
217	0x3e26231c	0.1622433
218	0xbcbcce76	-0.023047667
219	0x3d168ae4	0.03675355
220	0xbe10a385	-0.14124878
221	0x3c9075c3	0.017634278
222	0x3dc32f79	0.09530539
223	0x3b409ba1	0.0029389637
224	0x3dad8982	0.08473493
225	0xbd4ecea7	-0.050490048
226	0xbdf1b1e9	-0.11801512
227	0x3de311e5	0.110873975
228	0xbce4daf3	-0.027936434
229	0x3cd6fc82	0.026243452
230	0x3d5d827e	0.054079525
231	0x3bbebd8c	0.0058209356
232	0x3cf9a046	0.030471932
233	0x3d7f4e7d	0.06233071
234	0xbc52fd00	-0.012877703
235	0x3de448b7	0.11146682
236	0xbda5af84	-0.080901176
237	0xbdb45e23	-0.08807018
238	0xbce6d630	-0.028178304
239	0xbdf9854e	-0.12183629
240	0xbd5a9e7e	-0.053373806
241	0x3d18ced6	0.03730663
242	0x3e0070fd	0.12543102
243	0x3d1b2bdc	0.037883624
244	0xbd89f984	-0.067370445
245	0x3e26279b	0.16226046
246	0x3d402cfa	0.046917893
247	0xbd4e3b3c	-0.05034946
248	0xbe00a9c3	-0.12564759
249	0xbd3d9f91	-0.046294753
250	0x3e242e9c	0.16033405
251	0xbc3d5e76	-0.011558166
252	0xbdaf5053	-0.085602425
253	0x3e155a94	0.14585334
254	0xbdf6d5a8	-0.120524704
255	0xbe0e5e5c	-0.13903183

fc2.bias f4 [100]
0	0x3b1876aa	0.0023264089
1	0xbb080e7e	-0.002076059
2	0xbe0fe72d	-0.1405303
3	0x3d2f2d6d	0.04276793
4	0xbddb268a	-0.1070071
5	0xbd8181b0	-0.06323564
6	0xbe019a9a	-0.12656632
7	0x3deead10	0.11654103
8	0xbe19aba2	-0.15006879
9	0xbe3963b6	-0.18104443
10	0x3d6e89a0	0.05823672
11	0xbd7a4d6c	-0.06110899
12	0xbe280713	-0.16408949
13	0xbc83fcc9	-0.016111748
14	0xbe2b2b26	-0.16715679
15	0x3d93ae2a	0.072109535
16	0xbd339f46	-0.043853067
17	0xbd68dbb1	-0.05685014
18	0x3c4b8f1b	0.012424256
19	0x3d41f68b	0.047354262
20	0xbe0f82b9	-0.1401471
21	0xbd753dbc	-0.059873328
22	0xbc865701	-0.016398909
23	0xbe04f06b	-0.12982337
24	0x3daea27b	0.085270844
25	0xbe18e3a0	-0.14930582
26	0xbdb227ba	-0.086989835
27	0xbdbf4b32	-0.09340514
28	0xbd7ea51b	-0.062169176
29	0xbd75b01c	-0.059982404
30	0xbd03ebf1	-0.032207433
31	0xbd215e0f	-0.039396342
32	0xbd667dab	-0.05627219
33	0xbd8e41cc	-0.069461435
34	0xbb3e4e48	-0.0029038358
35	0xbd47cb9d	-0.048778165
36	0xbdc0497c	-0.09389016
37	0xbe235f12	-0.15954235
38	0xbda4bdb1	-0.08043993
39	0x3d19e491	0.037571494
40	0x3d1f04be	0.038822882
41	0xbd47a6ee	-0.04874318
42	0xbd5aa4f3	-0.053379964
43	0xbd9c1d31	-0.07622755
44	0xbdf6ad96	-0.12044828
45	0x3c2b7668	0.010465242
46	0xbd254700	-0.040350914
47	0xbd903509	-0.07041366
48	0xbd9b166a	-0.075726345
49	0xbcba66b7	-0.022754056
50	0xbe13c2d6	-0.14429793
51	0xbbb25b0d	-0.005442983
52	0xbc99a7a7	-0.0187567
53	0xbdb7d7de	-0.0897672
54	0xbd74d7ee	-0.05977624
55	0xbbfbf56e	-0.0076891696
56	0xbd0bc240	-0.034120798
57	0xbdcd24fb	-0.10016819
58	0xbd67183e	-0.056419604
59	0x3d33cabf	0.043894526
60	0xbda8fa3f	-0.08250856
61	0xbd852164	-0.065005094
62	0xbdf47e04	-0.11938098
63	0xbda00c46	-0.07814841
64	0xbc1a3457	-0.009411893
65	0x3de13c42	0.109978214
66	0xbe2bc777	-0.16775309
67	0xbd5d931d	-0.054095376
68	0xbde1bc71	-0.110222705
69	0xbe115cab	-0.14195506
70	0xbdca1e56	-0.09869067
71	0xbdac956f	-0.0842694
72	0xbe09709d	-0.13421865
73	0x3cf3ceab	0.029761633
74	0xbe28bf91	-0.16479327
75	0xbdc28844	-0.09498647
76	0xbda50d96	-0.08059232
77	0xbdfbac52	-0.12288727
78	0xbdaa5e88	-0.08318812
79	0xbe0ebb3b	-0.1393861
80	0x3d3af6f2	0.04564566
81	0xbc942377	-0.018083317
82	0x3cd23cdf	0.025663791
83	0x3ded610b	0.11590775
84	0xbdee6653	-0.116406105
85	0xbbcabb1e	-0.006186857
86	0x3d083eec	0.033263132
87	0xbdac7c4e	-0.08422147
88	0x3bee3177	0.0072690803
89	0x3d2ef275	0.042711694
90	0xbdcc6c7d	-0.0998163
91	0xbd9cebeb	-0.07662185
92	0x3cbda8f8	0.02315186
93	0x3c901882	0.017589811
94	0x3da3d769	0.080000706
95	0xbd82d6e4	-0.063886434
96	0x3d0aa202	0.03384591
97	0xbdd88296	-0.10571782
98	0xbe0bb59b	-0.13643496
99	0xbd3e280a	-0.046424903

out.weight f4 [1, 100]
0	0x3d760c8f	0.06007057
1	0xbd90c460	-0.070687056
2	0xbdc32b11	-0.09529699
3	0x3c320581	0.01086557
4	0xba7190c5	-0.0009214993
5	0x3c55f4c0	0.013058841
6	0x3d7136fb	0.058890324
7	0x3cfa0b76	0.030523043
8	0xbc83e92a	-0.016102392
9	0xbd213dda	-0.039365627
10	0x3d0ddf50	0.034636796
11	0x3ce2b0e6	0.027672242
12	0xbdbe1cdb	-0.092828475
13	0xbb70c57a	-0.00367388
14	0xbd65769a	-0.05602131
15	0xbd2c4d78	-0.042066067
16	0x3b772c87	0.003771575
17	0xbd3a34ac	-0.045460388
18	0xbc6ea6ca	-0.014566133
19	0xbd6f423c	-0.058412775
20	0xbce7835f	-0.028260885
21	0xbd33996e	-0.043847494
22	0x3d8889ef	0.06666934
23	0xbd020fb5	-0.03175326
24	0xbb800709	-0.0039070887
25	0xbca146bb	-0.019687047
26	0xbb0dd3f4	-0.0021641226
27	0xbdc520b3	-0.096253775
28	0xbd777999	-0.0604187
29	0x3c8ac075	0.016937474
30	0xbca126f7	-0.0196719
31	0xbce5c36a	-0.028047282
32	0x3cd11f50	0.025527626
33	0x3cc368a7	0.023853613
34	0xbcc377d6	-0.023860853
35	0xbd0434c6	-0.03227689
36	0xbcb6b8f5	-0.022304991
37	0xbe0d1692	-0.13778141
38	0x3c577a96	0.013151785
39	0x3d31485a	0.04328189
40	0xbb99efb3	-0.004697764
41	0x3d75bab5	0.05999251
42	0xbc8793f3	-0.01655004
43	0x3b27a628	0.0025581215
44	0xbd6e4989	-0.058175597
45	0x3d0a25a5	0.033727307
46	0xbc37370b	-0.011182557
47	0x3a8cd219	0.0010743766
48	0x3d9e98fb	0.077440225
49	0xbc46c7f4	-0.0121326335
50	0xbdd049da	-0.10170336
51	0x3ab89f1c	0.0014085504
52	0xbd502d9c	-0.050824746
53	0xbd17c54d	-0.037053395
54	0x3d359354	0.044329956
55	0xbc980230	-0.01855573
56	0x3e2bacac	0.16765088
57	0xbcdb269f	-0.026751814
58	0x3c5377f8	0.012907021
59	0xbcf2316d	-0.029564584
60	0x3cdd5c97	0.02702169
61	0x3a673b7b	0.0008820814
62	0x3d2e2102	0.042511947
63	0xbc2dd906	-0.010610824
64	0x3a429f9b	0.0007424296
65	0x3d59c439	0.053165648
66	0xbbb6e2f6	-0.005581255
67	0xbd8d87ac	-0.06910643
68	0x3cc4ec8a	0.024038572
69	0x3d4baef1	0.049727384
70	0x3cecff80	0.028930426
71	0xbced8f45	-0.02899898
72	0xbd8bc68f	-0.068249814
73	0xbcfc6e39	-0.030814277
74	0xbb83c242	-0.00402096
75	0xbda3fe60	-0.080075026
76	0x3d01db6d	0.0317034
77	0xbd29a7fa	-0.04141996
78	0xbc29b90c	-0.01035906
79	0x3b1b9f1c	0.002374596
80	0x3d76e9ea	0.06028167
81	0xbd215166	-0.03938427
82	0x3d63052a	0.055424847
83	0x3c7dd98d	0.015493763
84	0xbc3a023f	-0.011353075
85	0x3ce18cd2	0.027532969
86	0x3c151ba1	0.0091008255
87	0x3c477623	0.012174162
88	0xbd6da13a	-0.058015086
89	0x3cf76d8c	0.030203603
90	0x3c417e67	0.011809922
91	0x3cd33e4b	0.02578654
92	0xbca85f8e	-0.020553377
93	0xbcf8ac5a	-0.030355621
94	0x3d65ea8f	0.056131896
95	0x3d9e240b	0.077217184
96	0x3ab0acfa	0.0013479285
97	0xbd686ba8	-0.056743294
98	0xbcef7c88	-0.029234186
99	0x3daecb38	0.08534855
